…
20:40:33 | INFO     | __main__ |   [0] NOD             3356
20:40:33 | INFO     | __main__ |   [1] SHAKE           3356
20:40:33 | INFO     | __main__ |   [2] TILT_LEFT       3357
20:40:33 | INFO     | __main__ |   [3] TILT_RIGHT      3356
20:40:33 | INFO     | __main__ |   [4] STATIC          3356
20:40:34 | INFO     | __main__ | Model: "ISL_BiLSTM_Simple"
┏━━━━━━━━━━━━━━━━━━━━━━━━━━━━━━━━━┳━━━━━━━━━━━━━━━━━━━━━━━━┳━━━━━━━━━━━━━━━┓
┃ Layer (type)                    ┃ Output Shape           ┃       Param # ┃
┡━━━━━━━━━━━━━━━━━━━━━━━━━━━━━━━━━╇━━━━━━━━━━━━━━━━━━━━━━━━╇━━━━━━━━━━━━━━━┩
│ angle_sequence (InputLayer)     │ (None, 30, 8)          │             0 │
├─────────────────────────────────┼────────────────────────┼───────────────┤
│ bilstm_1 (Bidirectional)        │ (None, 30, 128)        │        37,376 │
├─────────────────────────────────┼────────────────────────┼───────────────┤
│ drop_lstm_1 (Dropout)           │ (None, 30, 128)        │             0 │
├─────────────────────────────────┼────────────────────────┼───────────────┤
│ bilstm_2 (Bidirectional)        │ (None, 64)             │        41,216 │
├─────────────────────────────────┼────────────────────────┼───────────────┤
│ drop_lstm_2 (Dropout)           │ (None, 64)             │             0 │
├─────────────────────────────────┼────────────────────────┼───────────────┤
│ dense_hidden (Dense)            │ (None, 64)             │         4,160 │
├─────────────────────────────────┼────────────────────────┼───────────────┤
│ drop_dense (Dropout)            │ (None, 64)             │             0 │
├─────────────────────────────────┼────────────────────────┼───────────────┤
│ output (Dense)                  │ (None, 5)              │           325 │
└─────────────────────────────────┴────────────────────────┴───────────────┘
 Total params: 83,077 (324.52 KB)
 Trainable params: 83,077 (324.52 KB)
 Non-trainable params: 0 (0.00 B)

20:40:34 | INFO     | __main__ | Loss function: sparse_categorical_crossentropy
20:40:34 | INFO     | __main__ | Starting training — epochs=150  lr=0.0003  focal=False
20:42:02 | INFO     | __main__ | Building dataset from: data/raw/synthetic_dataset.csv
…
